rl_controller/params/rl_controller.pt (torch_old, 95161 bytes, 4 tensors)

net.0.weight f4 [64, 2]
000000 ae 35 6e be 6b 6c 31 3f d4 a6 84 3e 9b 45 2d 3f
       -0.23262665 0.6930606 0.2590853 0.67684335
000010 0d 4f 0b 3f 52 bd bd 3e f6 5b 9e 3e 7f 32 32 3f
       0.54417497 0.37058502 0.30929536 0.696083
000020 8f 7d 23 3f b8 79 1e bf 19 09 15 3f e0 f5 aa 3d
       0.6386346 -0.6190448 0.58217007 0.08347678
000030 28 1c 52 be 40 41 1e bc 5c 67 22 be 50 be f0 be
       -0.20518553 -0.0096591115 -0.15859741 -0.47020197
000040 d6 7a ab be a8 d2 6b be 48 82 fb bd f8 7e cd 3d
       -0.33492154 -0.23029578 -0.122807086 0.10033983
000050 fc c5 87 3e c0 a1 8e bc 38 b3 b7 be 49 e9 13 3f
       0.26518238 -0.017411113 -0.3587892 0.5777784
000060 f0 fd 32 be a0 81 a7 3c db de 81 be 6f c9 9c be
       -0.17479682 0.020447552 -0.25365338 -0.30622432
000070 84 c7 eb be 90 9d 64 3d 8c b1 c2 be 18 40 eb bd
       -0.46050656 0.055814326 -0.38026083 -0.11486834
000080 7a b5 ac 3e d4 7c 01 3e 94 fb 2b 3e 50 2e 04 be
       0.33732206 0.12645274 0.16795188 -0.12908292
000090 f9 3a 08 3f 48 e3 43 be 58 da 02 bf c4 46 c8 be
       0.53214985 -0.1912967 -0.51114416 -0.3911649
0000a0 b0 78 4a bd b8 fa dd bd b6 a7 bd 3e cd 3a 05 3f
       -0.049431503 -0.108388364 0.37042016 0.5204285
0000b0 ef 1b 0e 3f b0 ff 5c bd 32 6e 92 be 24 42 40 be
       0.55511373 -0.05395478 -0.28599697 -0.1877523
0000c0 d0 39 85 3e 94 15 2e 3e f5 d3 0e 3f e9 e2 08 3f
       0.2602067 0.17000419 0.5579217 0.5347124
0000d0 32 ac b3 3e 80 20 69 3d c7 47 04 3f 73 3b 02 bf
       0.35092312 0.05691576 0.51672024 -0.5087196
0000e0 29 00 10 3f 90 ee 1b 3e f4 07 3a 3e b0 ab 1d 3d
       0.56250244 0.15227723 0.18167096 0.038493812
0000f0 50 97 80 be db be 2d bf 7a 47 d4 3e 04 43 4b 3e
       -0.25115442 -0.6786935 0.41460782 0.19849783
000100 d7 9e 15 bf fc 97 91 be 0b 50 13 bf 58 da aa be
       -0.58445495 -0.28436267 -0.5754401 -0.33369708
000110 41 01 2e 3f 2b e6 1c 3f 31 09 c6 be 48 11 05 3e
       0.67970663 0.6128871 -0.38678887 0.12994874
000120 de c6 cc 3e 05 df 18 3f fa 23 ea 3e 1f c8 03 3f
       0.39995474 0.597153 0.45730573 0.51477236
000130 79 25 09 3f b7 79 0f 3f be 1e cf be 20 54 1f 3e
       0.53572804 0.560451 -0.40453142 0.15559435
000140 87 94 06 3f 18 70 94 3e 30 8e 14 bf 66 63 dc 3e
       0.52570385 0.2899177 -0.5802946 0.43044585
000150 96 18 f1 3e fc bf 00 3e 87 80 06 3f 48 1a c9 bd
       0.4708907 0.12573236 0.5253987 -0.09819466
000160 75 b2 c1 be 74 1d ea be 53 49 2c 3f 86 7c bd 3e
       -0.37831464 -0.45725596 0.67299384 0.37009066
000170 6d 4a 9b be 2a 1f 5a be 10 e1 5a be 80 19 21 bd
       -0.3033022 -0.2130095 -0.21374917 -0.03933096
000180 72 89 bd be 5a 68 7f be f9 8e 33 3f ce e2 56 be
       -0.37018925 -0.2494215 0.70140034 -0.20984957
000190 3e cd 23 bf 18 02 b3 3d 4e 0f be 3e bf 7d 9f be
       -0.6398505 0.08740634 0.37121052 -0.31150624
0001a0 43 68 fb be 00 f0 69 b9 53 44 e3 be 71 bb 24 3f
       -0.49102983 -0.00022310019 -0.44388065 0.6434851
0001b0 9b da 12 3f ae 8b c7 be 9e 10 b2 3e 51 65 32 3f
       0.57364815 -0.38973755 0.34778303 0.69685847
0001c0 1c 9e 06 be d0 af 7e 3e 30 1e d8 3d 64 a8 05 3e
       -0.13146251 0.24871755 0.10552633 0.13052517
0001d0 ce d5 d6 3e 88 e1 01 bf 22 1b c5 3e fc a6 e8 be
       0.41959995 -0.5073476 0.38497263 -0.454399
0001e0 da fb d9 be 50 26 60 3d ff 32 fd be da 05 d4 3e
       -0.4257496 0.054724038 -0.4945297 0.41410714
0001f0 b0 a0 35 3e 60 34 90 be 08 b4 8c 3e c4 63 4b be
       0.17737079 -0.2816496 0.27481103 -0.19862276

net.0.bias f4 [64]
000000 e0 59 3d bd fb 91 15 3f 70 31 be 3d 0b cc 27 3f
       -0.04622829 0.58425874 0.09286773 0.6554572
000010 58 e4 1f bf 0d 23 88 be 4a 23 e5 3e 00 2d 54 be
       -0.624578 -0.26589242 0.44753486 -0.20720291
000020 37 95 2d 3f 70 38 83 bd 2f 3b 2e 3f f6 19 d2 3e
       0.6780581 -0.06407249 0.68059057 0.41035432
000030 b2 93 fc 3e f2 9d d6 3e 79 9f 2f bf 2d ff ad be
       0.49331433 0.41917378 -0.6860271 -0.33983746
000040 06 7d ec be dd 7d 87 be 83 29 0e 3f 4e 6a 83 be
       -0.46189135 -0.26463214 0.5553209 -0.25667042
000050 2d 5d 0a bf cb c0 f7 be 70 c4 b0 be 20 1c 6c 3e
       -0.54048425 -0.48389277 -0.3452487 0.23057604
000060 cf a0 29 bf cf 9b a6 be 57 71 c7 be ac 3f 95 3e
       -0.66261 -0.32540748 -0.3895366 0.2915014
000070 48 e1 02 be c0 0a 6f 3c 97 ab 1e 3f c0 4f 8e 3e
       -0.1278125 0.014589965 0.61980575 0.2779522
000080 e9 6d 0a 3f d0 e9 af bd 40 70 c3 3c 30 53 a9 3d
       0.5407396 -0.08589518 0.023857236 0.0826782
000090 20 e3 70 3d 7a 26 d0 3e a0 e0 65 bd 0a 9f e4 3e
       0.058810353 0.40654355 -0.056122422 0.44652587
0000a0 48 16 2e be 8c b5 85 be 05 0d a3 be 2f 5d 06 3f
       -0.17000687 -0.26115072 -0.3184587 0.52485937
0000b0 90 b0 94 3d e0 a2 b4 bd 40 d2 46 3d d6 59 c4 3e
       0.07260239 -0.088201284 0.048540354 0.3834979
0000c0 40 a1 ef 3c 2d b3 84 be b8 91 c2 bd c0 de 65 bd
       0.029251695 -0.2591795 -0.0950045 -0.056120634
0000d0 b6 16 f4 3e 60 97 33 3e bd 21 cb be 88 1d c6 bd
       0.47673577 0.17538214 -0.39674178 -0.096736014
0000e0 70 ed d9 bd 42 7e 83 be 1e 01 2d bf 8e cd ce 3e
       -0.10640991 -0.25682265 -0.6757983 0.403912
0000f0 64 7d 66 3e ee d2 95 be d8 09 45 be c6 79 a8 3e
       0.2250877 -0.2926249 -0.19242036 0.32905406

net.2.weight f4 [360, 64]
000000 80 fe c2 ba c2 20 98 3d 40 aa 6e 3d 0a e6 b0 bd
       -0.0014876872 0.07428123 0.05826783 -0.086376265
000010 68 f9 fb bc 0a ea 9e 3d 74 a8 62 bd 00 b1 2b 3a
       -0.030758575 0.07759483 -0.05533643 0.00065495074
000020 0e 78 84 bd 46 84 eb 3d 58 d9 b9 3c 0c 3c ef bd
       -0.06468211 0.114998385 0.022686645 -0.11681375
000030 e8 3d 57 bd 24 30 c4 3d 28 94 ea 3d 38 52 bb bd
       -0.052549273 0.095794946 0.1145404 -0.09146541
000040 88 38 e6 3d 92 ef a7 bd f8 2a 33 3d 84 f9 f7 3d
       0.11241251 -0.08199991 0.04374215 0.12108138
000050 40 f8 c4 3c fa 89 ec bd 78 31 86 3c a0 7b e8 bb
       0.024044156 -0.115497544 0.01638101 -0.0070948154
000060 c8 89 42 bd 08 75 87 3d 8c d2 ba 3d 8c 5e 2a bd
       -0.04749468 0.06614119 0.0912219 -0.041594073
000070 40 46 f2 3c e6 22 bf bd 64 c6 57 3d d4 cf 0d bd
       0.029574513 -0.09332828 0.052679434 -0.03462203
000080 e4 b6 50 3d c4 bb 3e 3d c0 d1 19 bc c0 c0 e8 3b
       0.050955668 0.046565786 -0.009388387 0.0071030557
000090 64 bf b7 bd 32 64 bb 3d 28 06 36 3d 60 8f 20 bd
       -0.08972052 0.0914997 0.044439465 -0.039199233
0000a0 b6 b4 ee 3d 06 27 85 3d 00 b0 4d 3d 78 10 54 bd
       0.116555616 0.06501584 0.050216675 -0.05177352
0000b0 68 a9 ba 3c 40 8f 81 3c 80 12 37 3c 00 47 67 3b
       0.022785857 0.015815377 0.011173844 0.0035290122
0000c0 58 47 ac 3d c8 7c fc 3c f0 62 f7 bc 00 c0 f9 37
       0.08412045 0.03082122 -0.030198544 2.977252e-05
0000d0 a0 89 b9 bb 10 b7 4c 3d d8 47 d7 bd e0 0d 12 bc
       -0.005662158 0.04997927 -0.1051175 -0.008914441
0000e0 50 ee 40 bd ac 34 5f 3d 40 fc 0a 3d 10 30 0b 3c
       -0.047102273 0.05449359 0.03393197 0.008495346
0000f0 d8 40 a4 bd d8 91 d8 bd 80 66 b0 ba 2c e9 89 3d
       -0.080201805 -0.105746925 -0.0013458282 0.06733927
000100 e0 6f e8 3c 9e b8 92 bd 60 66 c2 3b b4 c8 6d 3d
       0.028373659 -0.07164119 0.005932614 0.058052734
000110 a0 fa 5d bd 9c f9 c9 3d 70 32 ee bd 20 55 b0 bc
       -0.054194093 0.09862062 -0.11630714 -0.021524966
000120 68 fc ee bc 64 0d 7c bd dc 4a ca bd 7e 38 9c 3d
       -0.029173091 -0.061536208 -0.098775595 0.076279625
000130 d0 db fb 3c 50 3d 3f 3d 7c 2c c1 bd 7c 89 9d 3d
       0.030744463 0.04668933 -0.09432313 0.07692239
000140 d0 7d 53 bc 6a 1e b4 bd d4 a2 05 bd 68 2e be 3c
       -0.012908414 -0.087948635 -0.032625988 0.023215488
000150 14 cb 4d 3d 28 10 f5 3c 90 b6 57 3c 62 db bd bd
       0.0502425 0.02991493 0.013166085 -0.092703596
000160 42 7a fc 3d 20 5c ec 3b fe fd dc 3d 2a 9a c4 3d
       0.12328006 0.0072131306 0.10790633 0.09599717
000170 cc fe 4a bd 92 52 a7 3d c8 40 e0 3c 9c a8 4b bd
       -0.0495594 0.08170046 0.02737464 -0.049721345
000180 a8 c3 ac bd 1a 84 c7 bd 68 43 c2 bd d0 f6 7a bc
       -0.08435756 -0.09741993 -0.09485513 -0.015317634
000190 30 6d 52 bd 3e f8 d5 3d 2a 93 bd bd 14 8a 58 3d
       -0.05137366 0.10447739 -0.09256585 0.052866057
0001a0 e4 e3 f4 3d 22 e5 e8 bd e0 53 29 3c 5c f9 f5 3d
       0.11957529 -0.113718286 0.010334939 0.12010452
0001b0 b4 c2 fe 3d f0 d3 fb 3c 56 f2 f1 3d 62 4a e4 3d
       0.124394804 0.030740708 0.118138 0.11147
0001c0 ec f5 02 bd 3e 66 83 bd 8c ff 98 bd 44 b7 80 bd
       -0.03197281 -0.064159855 -0.07470617 -0.06284955
0001d0 4c f7 0f 3d 44 1b 29 3d 1a 5b d5 3d fe 55 87 3d
       0.03514795 0.04128577 0.10417767 0.066081986
0001e0 88 2d 76 3d 80 e3 5a 3b 4e 76 96 3d f0 1d 1a 3c
       0.060102016 0.003339976 0.073467836 0.009406552
0001f0 aa 5c 8a bd 50 3a 55 3d a0 59 05 bc 7e 6e a6 bd
       -0.067559555 0.052057564 -0.008139044 -0.081265435
000200 80 5e 14 3d ec bd 73 bd 68 31 b6 bd e0 60 ec 3c
       0.036222935 -0.059507295 -0.08896142 0.028854787
000210 84 c0 44 bd f0 14 ac bc 38 ea a8 3d 24 0b 8d bd
       -0.04803516 -0.021006078 0.08247799 -0.068868905
000220 20 86 09 bc 06 1f da 3d 40 06 c5 bc 88 2b d0 3c
       -0.008393794 0.106504485 -0.024050832 0.025411382
000230 90 58 85 3c c2 68 9f bd 00 00 75 3b 68 64 32 3d
       0.016277581 -0.07783653 0.0037384033 0.043552786
000240 9e 26 fa bd 5a 57 dc bd 60 8e dc bd 5c 7e 2c 3d
       -0.12214397 -0.107588485 -0.107693434 0.042112693
000250 50 19 b7 bd 04 a2 30 bd 38 06 a5 bc c0 32 f2 3b
       -0.08940375 -0.04312326 -0.020144567 0.007391304
000260 48 32 1c bd e4 8e 5f bd e0 4a 6e bc 72 38 d7 bd
       -0.03813389 -0.05457963 -0.014544219 -0.10508813
000270 c0 03 06 bc ae 2d 91 3d c0 a6 36 3c 70 1b c0 3d
       -0.008179605 0.07088791 0.011148155 0.09380233
000280 98 c5 87 3c 70 3f 13 bc 90 da 13 3c c8 f4 65 bd
       0.016573712 -0.008987293 0.009024277 -0.056141645
000290 b2 10 d3 bd a8 4d ce bd e4 19 11 bd 22 23 cf bd
       -0.10305919 -0.100734055 -0.03542508 -0.10114123
0002a0 e0 33 6c bc 0a 37 a2 bd c0 10 9f bb b8 c2 bd bd
       -0.014416665 -0.07920654 -0.0048542917 -0.09265655
0002b0 20 60 10 3d 94 26 89 3d 14 22 c9 bd 58 f7 d0 bd
       0.035247922 0.06696811 -0.09820953 -0.10203427
0002c0 c8 a3 60 bd 50 c3 2d bc 7c db c4 3d cc 7b 53 3d
       -0.054843694 -0.010605648 0.09612176 0.051631734
0002d0 6a 39 99 3d 60 ca 12 3d 60 86 f1 bd f2 9f 9c bd
       0.07481654 0.03583753 -0.11793208 -0.07647695
0002e0 b0 2d 03 bc d0 12 47 bc 7e ac e3 bd 8e 67 bc bd
       -0.008006498 -0.012150481 -0.11116885 -0.09199439
0002f0 08 a2 aa bc 08 2d 88 bd a4 95 80 3d 68 e4 8d bc
       -0.020829216 -0.06649214 0.06278542 -0.017320827
000300 f8 34 b6 3d b0 82 8b 3d 70 70 cb 3d 04 bb 02 3d
       0.08896822 0.06812036 0.09933555 0.031916633
000310 90 0f f0 3d 7a e6 a9 bd 94 92 f2 3d 6c dc 3f bd
       0.11721718 -0.08295913 0.11844364 -0.04684107
000320 00 e1 e1 ba 90 03 1d 3c d0 14 c9 3c ac 9d 65 bd
       -0.0017233193 0.009583369 0.024546057 -0.05605857
000330 0a bc 87 bd 80 45 2d bd 48 3c fd bd 26 2a 87 3d
       -0.066276625 -0.04230261 -0.12365013 0.06599836
000340 b0 4a 21 bd 0c 9b 8b 3d 60 14 fb bd 1e bc a6 bd
       -0.03937787 0.06816682 -0.122597456 -0.08141349
000350 f4 7b e6 3d b4 26 e9 bd 50 a8 2c bd 48 ab d2 bd
       0.11254111 -0.11384335 -0.042152703 -0.102865756
000360 60 d8 c8 3c 98 02 dc 3c 0c 26 67 bd a0 80 35 3d
       0.024517238 0.026856706 -0.05643277 0.04431212
000370 a4 e6 da bd c0 0d c3 3c 86 39 c6 bd 20 8f 34 3d
       -0.106885225 0.023810267 -0.096789405 0.044081807
000380 44 41 d8 bd 38 53 f2 bc 50 4a 28 3c 4a 75 80 3d
       -0.105593234 -0.029580697 0.010271624 0.06272371
000390 b0 6a 95 3c 66 6d ca 3d c0 71 11 bb b8 e7 f4 3c
       0.01823935 0.09884147 -0.0022193044 0.029895648
0003a0 98 02 85 bc b8 df 88 3c 30 a9 01 3c f0 85 bf bc
       -0.016236588 0.01670824 0.007913873 -0.023379296
0003b0 2c d4 77 bd 70 30 d3 3c 46 12 82 bd 3c 77 d1 bd
       -0.060505077 0.025779933 -0.06351142 -0.1022782
0003c0 50 36 9b bc 90 1f 93 3d 60 e4 97 3b d2 4f 89 bd
       -0.018946797 0.071837544 0.0046353787 -0.06704678
0003d0 40 c6 a6 bd 00 ee 72 ba a0 de f8 bb 0a 88 b3 bd
       -0.08143282 -0.0009267032 -0.0075948983 -0.08766182
0003e0 d6 df bb bd 54 be 90 3d d8 93 84 bc 00 a3 33 ba
       -0.09173553 0.07067552 -0.016183779 -0.0006852597
0003f0 5c bd ac 3d 92 d3 c5 3d 84 6d b1 3d 5c fe 3a bd
       0.08434555 0.096594945 0.086634666 -0.045652732

net.2.bias f4 [360]
000000 86 57 f6 bd cc a2 ef bd a8 99 84 bc 70 07 0d bd
       -0.120284125 -0.11700973 -0.01618655 -0.03443092
000010 1e 6f e7 bd c0 ba d8 3b 62 1f d9 bd 76 4f 96 3d
       -0.11300491 0.006614059 -0.10601689 0.07339375
000020 14 87 0e 3d 7e 90 d7 3d 48 e6 dc 3d 38 09 eb 3d
       0.03479679 0.105256066 0.1078611 0.11476368
000030 84 5f a8 3d 92 2c ca bd e0 af 57 bc e0 fb 07 3c
       0.08221343 -0.09871782 -0.01316449 0.008299798
000040 50 56 c2 3d 74 ca ad bd b0 d9 c2 bc fa c0 db bd
       0.09489119 -0.084858805 -0.023785442 -0.10730167
000050 d0 43 1c 3d 04 e1 d6 3d 1e 25 ea bd 60 f2 f3 3d
       0.03815061 0.10492137 -0.11432861 0.11911464
000060 a0 6f 16 3d 98 e8 a8 3d 98 f5 ab 3c ae 5f a8 bd
       0.036727548 0.08247489 0.020991132 -0.082213745
000070 84 bf 5d 3d 96 2f d2 3d 42 3b d0 bd 42 ca da bd
       0.05413772 0.102629825 -0.101675525 -0.10683109
000080 f0 63 3a 3c 8e bc cf bd 44 34 d4 3d a0 71 fd 3b
       0.011376366 -0.10143386 0.103615314 0.0077344924
000090 46 20 96 3d e8 39 ce 3c 3e dc e4 3d 42 91 a4 bd
       0.073303744 0.025174096 0.1117482 -0.08035518
0000a0 70 03 98 bd 20 a5 68 3d 78 ab 7f 3d 20 73 f6 3d
       -0.07422531 0.0567981 0.062419385 0.12033677
0000b0 a8 29 87 3c 94 e8 4c 3d 00 78 63 bc 6a 7f f9 bd
       0.016499355 0.05002649 -0.013883591 -0.121825054
0000c0 ee d2 90 3d b6 ec fd 3d 00 b3 c4 3a 5c 1f e3 3d
       0.07071482 0.12398665 0.001500696 0.11089966
0000d0 32 ff b9 bd b0 a8 0d bc fe 7f a8 bd c8 31 be bc
       -0.09081878 -0.008646175 -0.082275376 -0.023217097
0000e0 d8 9f 1d 3d a0 b5 39 3c 94 5f 8e bd 90 4f bd 3c
       0.038482517 0.011334807 -0.06951824 0.023109227
0000f0 58 2f 69 3d 48 d2 f7 3d 0c fe b1 3d 40 fc cf bd
       0.056929916 0.12100655 0.08691034 -0.10155535
000100 3e ba d9 3d f0 41 1b 3c c0 88 af 3d ba a0 99 3d
       0.10631226 0.00947617 0.08571005 0.07501359
000110 b4 70 3f 3d 04 e3 96 3d f8 26 66 bd 84 8b 0b 3d
       0.04673834 0.073675185 -0.056189507 0.0340686
000120 d6 88 af 3d d2 c3 ad bd 94 06 b3 3d fe 2e c2 bd
       0.08571021 -0.084846154 0.08741489 -0.09481619
000130 a0 4e ba bc a4 45 a5 3d 30 70 e3 3d a8 de cc 3c
       -0.02274257 0.080699235 0.111053824 0.025008515
000140 a8 be 4a bd 80 aa 15 3d 24 18 c6 3d 22 d4 ca 3d
       -0.04949823 0.036539555 0.09672573 0.099037424
000150 12 21 fd bd 2c e5 c5 bd b2 dd 9d 3d 7e b1 8a 3d
       -0.12359823 -0.09662852 0.07708301 0.06772135
000160 48 e7 a9 bd 98 9e 02 3d 40 29 a5 bd d0 3d 94 bd
       -0.082960665 0.031889528 -0.080645084 -0.07238352
000170 20 70 10 3d e4 7a 4a 3d b4 43 cb 3d 34 c3 f4 3d
       0.03526318 0.049433604 0.09925023 0.119512945
000180 38 dd b4 3c fa 5e d1 bd c8 a5 31 3d b4 d9 11 3d
       0.022078142 -0.102231935 0.043370992 0.03560801
000190 58 1b bf 3d 08 f3 b4 bd 00 eb 94 3a 08 10 7e 3d
       0.09331387 -0.08835417 0.0011361539 0.062027007
0001a0 80 6a 32 bb 8c f3 2e bd 00 e6 bd bb 94 ad 74 3d
       -0.0027224123 -0.042712733 -0.0057952404 0.05973585
0001b0 a8 56 80 3c 00 26 f7 3b 24 43 30 bd 34 56 02 3d
       0.01566632 0.0075423717 -0.04303278 0.03182049
0001c0 dc 55 38 bd 8e 59 9c bd de 8a 8e 3d 0c dc 9a 3d
       -0.045003757 -0.07634269 0.069600806 0.07561502
0001d0 56 7c e0 3d ba cd 91 bd e4 95 27 bd 9c ad 00 bd
       0.10961215 -0.07119317 -0.04091443 -0.031415567
0001e0 08 80 a2 3d e4 45 e7 3d 20 ae eb 3b 7a 60 e9 bd
       0.07934576 0.112926275 0.007192388 -0.113953546
0001f0 f6 82 c7 3d f0 ae 73 bc 68 da 09 bd 00 45 6c bb
       0.09741776 -0.014873251 -0.033655554 -0.003605187
000200 30 0c 8f bd c6 ec c6 bd 88 ad 8b 3d ec a4 7d 3d
       -0.069847465 -0.0971313 0.06820208 0.06192486
000210 46 ba eb bd 68 65 93 bd 9c 07 60 3d a0 8b af 3b
       -0.11510138 -0.07197076 0.054694757 0.005357221
000220 68 f4 ce bc ec c2 37 3d a6 33 b2 bd bc 8f 12 bd
       -0.025263026 0.044863626 -0.087012574 -0.035781607
000230 46 86 f7 bd 3c a8 6a 3d c0 04 68 3d 0a ba 8b bd
       -0.120861575 0.057289347 0.056645155 -0.068225935
000240 00 fd d9 3d 98 80 8e 3c 6e 46 aa 3d 00 08 c8 3c
       0.10643959 0.017395303 0.08314215 0.024417877
000250 12 07 fc 3d c8 38 2e bd 2a ed ad bd a0 be 98 3c
       0.12306036 -0.04253462 -0.08492501 0.018645585
000260 d8 aa 94 3d a4 51 ed 3d aa 00 9e bd d0 ef 44 bc
       0.07259148 0.11587837 -0.077149704 -0.012020066
000270 74 c3 d4 3d c0 e0 2b bb 3c ba 33 3d ba 65 eb bd
       0.10388842 -0.002622649 0.04387878 -0.11494012
000280 02 b1 d6 bd 00 03 12 3c b8 6e 5e 3d 10 d6 39 bc
       -0.1048298 0.008911848 0.05430481 -0.01134254
000290 9e 0e e4 bd 84 99 16 bd 5c c8 fb bd 90 0e f3 bc
       -0.111356005 -0.036767498 -0.12294075 -0.02967003
0002a0 ec a2 98 3d 20 c1 79 bc dc 62 f7 bd 26 95 8a 3d
       0.0745295 -0.0152437985 -0.12079403 0.06766729
0002b0 aa 67 ca 3d 02 01 8f bd 20 37 bf bc 60 6e 0e 3d
       0.098830536 -0.06982614 -0.023341715 0.03477323
0002c0 98 e4 48 bd 14 b7 fd 3d 00 e7 f7 3b 46 2d b1 bd
       -0.04904613 0.12388435 0.007565379 -0.08651213
0002d0 10 0d 00 3d 6a 32 9e 3d be 69 fc bd 40 b8 af 3c
       0.031262457 0.077244595 -0.12324856 0.021450162
0002e0 00 4d a9 bb 68 e6 07 bd 80 3d b2 3b cc f4 b6 bd
       -0.00516665 -0.033178717 0.0054394603 -0.0893341
0002f0 00 2f ab 3b a8 10 a0 bd 62 bc a8 bd 98 53 fc bd
       0.0052241087 -0.07815677 -0.08239056 -0.12320632
000300 a2 23 e5 3d 44 3e 32 bd ee 04 a9 3d 90 3b 30 3d
       0.11188437 -0.043516412 0.082528934 0.043025553
000310 60 55 8d 3b 58 cb 68 3d ce 96 f5 bd f0 ee 39 3c
       0.004313156 0.05683455 -0.11991654 0.011348471
000320 3a f0 c7 3d 8a fa f4 3d 9a 84 ae 3d ae bf ad 3d
       0.097626165 0.11961849 0.085213855 0.084838256
000330 48 08 db bd 04 68 ca 3d 5e 3d d0 bd f0 cf 52 bc
       -0.10694939 0.09883121 -0.10167955 -0.012866959
000340 6c d8 5f 3d 6e 1d b5 bd 82 2e 88 3d c0 87 0f 3c
       0.054649755 -0.08843504 0.06649496 0.008760393
000350 f8 7e e6 3c 74 b4 b1 3d 20 e6 d5 3d 06 92 ec 3d
       0.028136715 0.08676997 0.104442835 0.11551289
000360 d4 a8 7a 3d 20 7f 37 3d 00 41 28 3b 54 57 35 bd
       0.061196163 0.04479897 0.0025673509 -0.044272736
000370 0a 5b 8c 3d e2 fb d9 3d 24 0d f7 bd b4 15 09 3d
       0.06853302 0.10643746 -0.12063053 0.033467963
000380 4a bf cc bd 0e b5 96 3d d0 8d ea 3c 7e 1d b1 3d
       -0.09997423 0.07358752 0.028632075 0.08648203
000390 48 4d 21 3d 9c 90 64 3d 8c bc b7 bd 30 d3 3f bc
       0.03938034 0.055801973 -0.08971509 -0.011708066
0003a0 d0 b3 73 bd d8 85 3f 3d cc 89 ba 3d 88 af ad 3d
       -0.059497654 0.046758503 0.09108314 0.084807456
0003b0 be f4 be bd d4 ae f5 bd e0 16 fc 3d 80 23 8d 3b
       -0.093240246 -0.119962364 0.123090506 0.0043072104
0003c0 14 b5 d7 bd 8c c8 57 bd d0 f9 ab bc 80 38 8a 3b
       -0.10532585 -0.05268149 -0.020993143 0.004218161
0003d0 8c 71 3e 3d 3c 0e 1d 3d ba d3 d0 3d 88 b1 ff bd
       0.046495005 0.038343653 0.10196634 -0.12485033
0003e0 5c 70 81 bd 1c 39 ef bd 9e 79 e3 3d 80 a4 4a bc
       -0.06320259 -0.116808146 0.11107181 -0.012368321
0003f0 10 88 34 bc 3e e1 9f 3d 20 f1 8c 3d a0 4e e6 bd
       -0.011018768 0.078066334 0.068819284 -0.11245465
